models/pupil_segnet.tflite (tflite, 895824 bytes, 23 tensors)

arith.constant f2 [16]
00000000: 03a1 5ca5 4ea2 bc96 781c 691f 558d 2ea0
00000010: 38a0 8ca1 eaa6 1f98 4ca3 4ea2 4795 721d
-0.00979 -0.02094 -0.012314 -0.001644 0.004364 0.007236 -0.0003254 -0.00816
-0.00824 -0.01083 -0.02701 -0.002012 -0.01425 -0.012314 -0.001288 0.005318

arith.constant1 f2 [16, 3, 3, 3]
00000000: 5921 52b1 76b1 fcb1 7da5 05ad 22ad 2baf
00000010: 571e ca2c 45b1 02b1 0b2e 06a2 d1b1 49b1
00000020: 8f31 f12d 3d29 f42e bfa8 a920 7130 6e30
00000030: 8f94 8daf a930 26a5 8ca1 ba29 2cb2 482a
00000040: 95b0 4e2c 62b1 c595 d52c 18a6 ae2c ceac
00000050: 79b1 ffa1 abb1 5da9 c02f c0af 0c30 83ae
00000060: 5730 2f31 47b2 24b2 e82d e5b1 2ca8 20a7
00000070: 3fb1 7531 cc2b ffa8 722e ad2c 1e2c 892d
00000080: 032f a5ac 7225 ec27 c8b0 13ae 8d9c 79ae
00000090: 1029 cf2d 91b1 8baa 53a6 af28 d42a 3f2e
000000a0: d5ac acb1 cd2a a0b0 b02d 7e23 78b0 b3b1
000000b0: 0ca5 a7b1 77a9 e1a8 8821 5930 6eb1 542d
000000c0: fc2d f831 64b1 6531 3120 2da8 e8b1 39aa
000000d0: 0625 b32a 09b2 1aa5 49aa 06a4 8baf 7699
000000e0: 49b1 c8b0 2231 392d d02d 45af 8eb0 e7b1
000000f0: 76ae e72e e52d 38ac 0321 4331 dfac 412a
00000100: 4fa4 9aa8 3daa f027 2aaf 3331 73ae 612f
00000110: 15ab cfae cb26 c030 bbac c430 a3aa 6eb0
00000120: fea6 edb0 58b0 a529 d8a1 9631 edad 102e
00000130: 56a0 24ab 89a5 ec2f 83b0 1eaa 2430 a7af
00000140: 3eb1 b1ae 52b0 8030 f630 07b1 bc31 2eb0
00000150: 93b2 402d d030 b9b2 c6b0 d9ae 232b d4a7
00000160: 4931 c021 aeaf 8dac 56b2 409d 0332 6930
00000170: 132b 2130 362d dbac 0b2f 46b2 ffa9 c02b
00000180: 772e caac 27b2 f9b1 c22f 4f2a 2ea5 8621
00000190: a59e 74a9 e02c 5db0 56b0 7bad 6030 3d31
000001a0: 5bac 2c2e 1bb1 d3b0 d7b1 4429 c130 d42e
000001b0: 0caf 9c28 fca2 b325 2db0 4faf 6030 03b2
000001c0: b9ac 96a7 3031 7d24 a7b0 1aad a5ae d5b0
000001d0: 37a4 bb2f 7320 fdb0 0f2d 4d2d 4b31 3f30
000001e0: 8031 1ca5 211e d89e e6b0 90ad 432f 72b2
000001f0: 87af d0ac d42d b4a8 1131 1531 4bb1 82ac
0.010445 -0.1663 -0.1707 -0.187 -0.02144 -0.0784 -0.0802 -0.112
0.00619 0.0748 -0.1647 -0.1565 0.0944 -0.011765 -0.1818 -0.1652
0.1737 0.09283 0.04092 0.10864 -0.03708 0.0091 0.1388 0.1384
-0.001113 -0.118 0.1456 -0.02011 -0.01083 0.04474 -0.1929 0.04907
-0.1432 0.06726 -0.1682 -0.001409 0.0755 -0.0238 0.0731 -0.0751
-0.171 -0.01171 -0.1771 -0.0419 0.1211 -0.1211 0.1265 -0.10175
0.1356 0.162 -0.1962 -0.1919 0.0923 -0.1842 -0.0326 -0.02783
-0.164 0.1705 0.0609 -0.03903 0.1007 0.07306 0.06433 0.0865
0.10956 -0.0726 0.02127 0.03094 -0.1494 -0.0949 -0.004444 -0.10114
0.03955 0.09076 -0.174 -0.05112 -0.0247 0.0366 0.05334 0.0976
-0.0755 -0.1772 0.05313 -0.1445 0.08887 0.01463 -0.1396 -0.1781
-0.01971 -0.1766 -0.0427 -0.03812 0.0108 0.1359 -0.1697 0.08325
0.0935 0.1865 -0.1685 0.1686 0.00819 -0.03262 -0.1846 -0.0486
0.01962 0.05234 -0.1886 -0.01993 -0.0491 -0.01572 -0.11786 -0.002666
-0.1652 -0.1494 0.1604 0.0816 0.0908 -0.1136 -0.1423 -0.1844
-0.10095 0.10785 0.0921 -0.0659 0.00979 0.1644 -0.0761 0.04886
-0.01683 -0.03595 -0.04874 0.031 -0.11194 0.1625 -0.10077 0.1153
-0.05533 -0.1064 0.02654 0.1484 -0.0739 0.1489 -0.05185 -0.1384
-0.02731 -0.1539 -0.1357 0.0441 -0.01141 0.1746 -0.0926 0.0947
-0.00847 -0.0558 -0.02162 0.1238 -0.141 -0.0478 0.1294 -0.11957
-0.1638 -0.10455 -0.135 0.1406 0.155 -0.1571 0.1792 -0.1306
-0.2054 0.08203 0.1504 -0.2101 -0.1492 -0.107 0.05576 -0.03058
0.1652 0.01123 -0.12 -0.0711 -0.198 -0.005127 0.1879 0.1378
0.05527 0.129 0.0814 -0.07587 0.11005 -0.196 -0.04684 0.06055
0.101 -0.0748 -0.1923 -0.1866 0.1212 0.0493 -0.02023 0.01079
-0.00649 -0.0426 0.0762 -0.1364 -0.1355 -0.08563 0.1367 0.1637
-0.06805 0.09644 -0.1595 -0.1508 -0.1825 0.04114 0.1486 0.1067
-0.1101 0.036 -0.01364 0.02226 -0.1305 -0.1142 0.1367 -0.1879
-0.0738 -0.02963 0.1621 0.01753 -0.1454 -0.0797 -0.1038 -0.151
-0.01646 0.1208 0.00869 -0.1559 0.07904 0.0828 0.1654 0.1327
0.1719 -0.01996 0.005985 -0.006683 -0.1531 -0.0869 0.11346 -0.2014
-0.1176 -0.0752 0.09106 -0.03674 0.1583 0.1588 -0.1654 -0.07043

arith.constant15 f2 [16, 3, 3, 16]
00000000: 8d9c b327 c92d 5ba8 1330 6330 632f 14a5
00000010: 71ac db29 feac 7230 5e30 d4ac afb0 152e
00000020: 56ab 222e 542c 792c c930 152b 2623 dfa9
00000030: 73a6 30ae 53b0 1a8c 9ca6 fa2f 2b30 1a26
00000040: 122d faad b5ac 8c2d 85ab a521 fb9f 602b
00000050: 4fb0 542c 432d 7c9d daad 03ac c328 b82f
00000060: baa4 dea3 1a24 2430 99ac 022b 5dad cc30
00000070: 912a 9cae 7d2b b52d 53ae e729 97ae 49af
00000080: 3129 6330 3fb1 2330 a4af 7730 b025 2830
00000090: 60a6 42ad 12b0 3f2d 652d 1bad a62c ed2d
000000a0: 65a0 f728 f7aa 572a e52b 8124 df22 442b
000000b0: 27ac b9a9 2aad d528 9e27 ec1a 4d30 0229
000000c0: 6a28 e92e 9dab ff22 0528 322d 59ae 8e23
000000d0: bf2e 15ae 33b0 4eac b226 2c30 47b0 71a8
000000e0: c9ac 3c99 27a0 9430 73ac de29 4c2e 6927
000000f0: 612d 0220 c3ae 2bab 84a3 7e2e aeaf 312e
00000100: d0ad 84ad 93ac 3330 ffa8 23aa 69b0 19ab
00000110: 5526 0430 7e1c bd2a deae 25ac 3aa7 6da8
00000120: 54ae bfa9 96a1 8723 3c2d 26a9 4cae baae
00000130: aead fa2c ecac ae02 a62c b921 b3a6 382b
00000140: ad30 44ad 2f2d 5ba7 412c 49b0 2ea8 1f30
00000150: f22b d720 7230 202d 9d2c 6cac c02d 6824
00000160: bfac a7af 27b0 6b2a 4229 b1a0 2aaa 67b0
00000170: 802f 5326 682e 952c b430 02a6 662d b1b0
00000180: 3225 7aa6 25a7 9f28 2930 08ae 8128 88ad
00000190: e82d 7629 252d f2a3 46af bb26 86a9 532f
000001a0: 922c f71f 10b0 702c d9ac b418 1eb1 842e
000001b0: 59a8 01b0 a12b 2822 1422 2829 78a3 532a
000001c0: a42c 8085 0fb0 9db0 20ae 8ead b3a5 28a3
000001d0: e5b0 1830 1e2f 992f 4d2d 16b0 8da1 94ae
000001e0: e72f 872d 28b0 e82c 132a 2327 1e2d d02c
000001f0: 1725 f92e 25ac 26b0 7bae 3ba9 c398 1a29
-0.004444 0.03008 0.0904 -0.03403 0.1273 0.1371 0.1154 -0.01984
-0.0694 0.04575 -0.078 0.1389 0.1365 -0.07544 -0.1464 0.09503
-0.0573 0.0958 0.0676 0.0699 0.1495 0.05533 0.01396 -0.04587
-0.02519 -0.0967 -0.1351 -0.0002503 -0.02582 0.12463 0.1302 0.02383
0.0792 -0.0934 -0.07355 0.0867 -0.05875 0.011024 -0.007793 0.05762
-0.1346 0.0676 0.0822 -0.005356 -0.09143 -0.0627 0.0372 0.1206
-0.01846 -0.015366 0.01602 0.1294 -0.07184 0.05475 -0.0838 0.1499
0.0513 -0.1033 0.0585 0.0892 -0.0988 0.0461 -0.10297 -0.11383
0.04056 0.1371 -0.164 0.1293 -0.1194 0.1395 0.02222 0.1299
-0.0249 -0.08215 -0.1272 0.082 0.0843 -0.0798 0.07263 0.0926
-0.00858 0.0388 -0.0544 0.04953 0.06168 0.0176 0.01342 0.05676
-0.0649 -0.0447 -0.0807 0.03775 0.02975 0.00338 0.1344 0.03912
0.0345 0.108 -0.05948 0.013664 0.0314 0.0812 -0.0992 0.014755
0.1054 -0.09503 -0.1312 -0.06726 0.02615 0.1304 -0.1337 -0.0347
-0.07477 -0.002556 -0.00811 0.1431 -0.0695 0.04584 0.0984 0.02895
0.08405 0.00783 -0.10565 -0.056 -0.01468 0.10144 -0.12 0.09674
-0.0908 -0.0862 -0.0715 0.1312 -0.03903 -0.04794 -0.1378 -0.05545
0.02473 0.1255 0.004387 0.05264 -0.1073 -0.06476 -0.02823 -0.03458
-0.0989 -0.0449 -0.01091 0.0147 0.0818 -0.04022 -0.0984 -0.1051
-0.08875 0.07776 -0.0769 4.09e-05 0.07263 0.01118 -0.02617 0.0564
0.1461 -0.0823 0.081 -0.02873 0.06647 -0.1339 -0.03265 0.1288
0.06207 0.00945 0.1389 0.0801 0.0721 -0.0691 0.08984 0.01721
-0.07416 -0.11957 -0.1298 0.05014 0.04108 -0.00916 -0.04816 -0.1376
0.1172 0.0247 0.1001 0.0716 0.147 -0.02347 0.08435 -0.1466
0.0203 -0.0253 -0.02791 0.0361 0.13 -0.09424 0.0352 -0.0864
0.0923 0.04266 0.0804 -0.01552 -0.11365 0.02629 -0.04315 0.11444
0.0714 0.00778 -0.127 0.06934 -0.07574 0.002296 -0.1599 0.1018
-0.03397 -0.1251 0.0596 0.012024 0.01187 0.04028 -0.01459 0.0494
0.0725 -8.39e-05 -0.1268 -0.1442 -0.0957 -0.0868 -0.02226 -0.01398
-0.153 0.1279 0.1112 0.1187 0.0828 -0.1277 -0.01084 -0.1028
0.1235 0.08636 -0.1299 0.07666 0.04745 0.02788 0.07996 0.0752
0.01988 0.10895 -0.06476 -0.1296 -0.10126 -0.04086 -0.002325 0.03986

arith.constant16 f2 [32, 3, 3, 16]
00000000: e524 a2ac 7a2d 0d2d 7497 c32d 4524 66a7
00000010: d0a5 0b2a 44a8 702d fc2d 2528 56a0 a31d
00000020: c5a7 ef2a 2e2b f22d 962d da2d b923 60af
00000030: 37a0 d12c 43ac 5a12 6e2d 2aaf da2c cc2a
00000040: 091d a729 0e2c 682c 7bab 502f 7c9f 11ad
00000050: 57ac 8aac b32e ac28 5ba9 2a25 292d c32d
00000060: 7724 c2ae 68aa 102e 58ad d5a4 da9e dbad
00000070: fea8 8eab 41ac 700b 092e 78ab cda4 e5ae
00000080: dca0 f2a9 a8af 08af f4a8 ae2e 1aa8 69a9
00000090: 1fa6 48ae 072b 202e 9aad 482e 1cac 47af
000000a0: cdab e824 93a7 cead 77ae 412f d5a1 ceaa
000000b0: 5da7 07a8 6527 5220 edac f9ae 16ad c42d
000000c0: 14a9 ada6 d0a4 482d 23a9 ec8c bda2 a0af
000000d0: cbad e69e 3c2a c5ad 892f a9aa 8fa9 75a3
000000e0: 20ad ee29 45a9 0a25 f0ac cc2a dc28 452e
000000f0: 682b 422b b42f 482d 8d2d 732a f224 e028
00000100: b02f 9b2d 6b26 0727 f32e 3c2a 172f d525
00000110: b02d feaa e2a8 0f2a 2b26 7421 a12c 362e
00000120: 4eae adae 472d 4aa4 09ab 8cad 4e2c 67aa
00000130: 7a2b 48a9 1daa 67ad d3a4 922c 7b2d e2a5
00000140: a02d f529 e426 111e e922 ffad 372e 9723
00000150: 8b2b 5eaf 2aac 16a7 4a2e 5f98 d5af 682f
00000160: 1c23 c7a5 0aad 222d e124 e42b 252b 13a5
00000170: 072a e5a8 ae2d ce2c b4a4 23ad caaf 15a6
00000180: 332c e623 b42e 0dac d8af 532d f5ab 262c
00000190: ec9f 5c2d 48ac f92a 57ae c9a8 0b2d c729
000001a0: d5a7 e32a 1fae daac 1daa 4fa6 3624 102a
000001b0: a5af 53aa c8a5 4aa5 ed2d 602d 40aa 6ca5
000001c0: d62d 1229 b92f 1a2e 30a7 482d 1da9 3f2a
000001d0: 9aa2 ee29 72ad 0124 819d c01a 8caf beae
000001e0: dcad 6dac cc28 7a28 98ae 4d1e e7a3 90ad
000001f0: e62c 08ab 20ae 4b2d 82ac 238d 2c9d f1a8
0.01912 -0.0724 0.0856 0.0789 -0.00182 0.09 0.01668 -0.0289
-0.0227 0.0472 -0.03333 0.08496 0.0935 0.03238 -0.00847 0.005505
-0.03035 0.05417 0.0561 0.0929 0.0873 0.09143 0.01508 -0.11523
-0.00823 0.07526 -0.0666 0.0007753 0.08484 -0.11194 0.0758 0.0531
0.004917 0.04416 0.06335 0.06885 -0.05844 0.11426 -0.00731 -0.07916
-0.0678 -0.0709 0.1047 0.0365 -0.04184 0.02017 0.0806 0.09
0.01744 -0.1056 -0.05005 0.0947 -0.0835 -0.01888 -0.00669 -0.0915
-0.039 -0.05902 -0.06647 0.000227 0.0943 -0.05835 -0.01875 -0.1077
-0.00949 -0.04645 -0.1196 -0.10986 -0.0387 0.1044 -0.03204 -0.04227
-0.02391 -0.09814 0.0549 0.0957 -0.0875 0.09814 -0.0642 -0.1137
-0.06094 0.01917 -0.02959 -0.0907 -0.101 0.11334 -0.01139 -0.05316
-0.02876 -0.03146 0.02888 0.00844 -0.07697 -0.10895 -0.07947 0.0901
-0.03967 -0.02608 -0.0188 0.0825 -0.04013 -0.0003004 -0.01316 -0.11914
-0.0905 -0.006737 0.0487 -0.09015 0.11774 -0.05203 -0.04343 -0.014565
-0.0801 0.04633 -0.04117 0.01968 -0.07715 0.0531 0.03796 0.09796
0.05786 0.0567 0.12036 0.0825 0.08673 0.05038 0.01932 0.0381
0.1201 0.0876 0.02507 0.02745 0.1086 0.0487 0.1108 0.02278
0.08887 -0.05463 -0.03815 0.04733 0.0241 0.01065 0.0723 0.09705
-0.0985 -0.1043 0.08246 -0.01675 -0.05496 -0.0867 0.06726 -0.05002
0.0584 -0.04126 -0.04776 -0.0844 -0.01884 0.0714 0.08563 -0.02298
0.0879 0.04654 0.02692 0.005924 0.0135 -0.0937 0.0971 0.014824
0.05893 -0.1151 -0.06506 -0.02768 0.09827 -0.002134 -0.1224 0.1157
0.013885 -0.02257 -0.07874 0.0802 0.01906 0.06165 0.05582 -0.01982
0.0471 -0.03824 0.08875 0.0751 -0.01837 -0.08026 -0.1217 -0.02376
0.0656 0.01543 0.10474 -0.0633 -0.12256 0.0832 -0.06216 0.0648
-0.007736 0.08374 -0.0669 0.05447 -0.09906 -0.03738 0.0788 0.04514
-0.0306 0.0538 -0.09564 -0.0758 -0.04776 -0.02464 0.01645 0.04736
-0.11945 -0.0494 -0.02258 -0.02066 0.0926 0.084 -0.04883 -0.02118
0.0912 0.0396 0.12067 0.09534 -0.02808 0.0825 -0.03995 0.0488
-0.01289 0.04633 -0.0851 0.01564 -0.005375 0.003296 -0.1179 -0.10535
-0.09155 -0.06915 0.03748 0.03497 -0.103 0.006153 -0.015434 -0.0869
0.07654 -0.05493 -0.0957 0.0827 -0.07043 -0.0003135 -0.00505 -0.0386

arith.constant17 f2 [32, 3, 3, 32]
00000000: efa2 c32b 84ab 4dad 40ad 20ac 5cae 82ae
00000010: 832d 01ab 1012 51ad f2a0 c62c 6e2c 6629
00000020: b124 7027 ba2c 8fa3 090b 372d 7028 e1ac
00000030: ae1c a2a6 e929 31ad 6aaa 9a9f 2d29 972a
00000040: e629 dcab b128 05a9 cda8 352b 442d a4ae
00000050: 482a 5e2c fe25 56a1 17ad 77ab 57aa d8aa
00000060: 4026 b2ac 8dad 95ac 5eac d7aa 102c 892d
00000070: dda1 6827 c628 dc29 d19a fa28 122c b02b
00000080: 17ac 4f9c 2320 da29 0da8 3bac 3a2a b1aa
00000090: 68ac 8c28 4628 32ae 5b2a 911f 45aa 2e2d
000000a0: 78a8 5eac 6f24 a82b 8cae 15a9 d929 5223
000000b0: 4a2c 7da8 b7ae 48a4 11ae bfa1 f42c 8828
000000c0: 2b29 c0ac 0fad 3aa6 1a2e d92d 81a9 25ac
000000d0: 9528 7c29 6d27 2aa5 f225 46ae 69ad 5c2d
000000e0: 389f 3ea1 4898 93ac bfaa 102c 56a3 56ac
000000f0: 4f29 6da9 38ae 6a9c af2b 5a2c 9eaa b2a9
00000100: d2a8 f52c ac23 10ae 6bab f9ad 7b2c 35ad
00000110: a82c 541f fd29 94ae e19e 719d e42c 21aa
00000120: 5225 32ac 402c b9ae 3ea5 a6ac f32a ed2b
00000130: 5cae 9aab 782b e42d 95ae 53a5 552d 4828
00000140: 8da0 b6ae 672a 9c2c 2ea8 25a8 e925 46ac
00000150: ea9c 0726 222c 5ba0 1128 3dac 08a6 e01a
00000160: f9ad e728 4b2c 90a9 01a7 e529 9a2a f12d
00000170: b629 e8ac d8a3 27aa 0e29 ebad 4bab 0daa
00000180: 1628 9a29 0921 3227 272a 5fab 0b2e 7daa
00000190: 7c2b bd29 202e 45ad df2d 6321 7324 3fa8
000001a0: cd2c 0319 eea2 69a7 39ac 2fac 43ad 42a8
000001b0: e128 8929 3524 d2ac 6f2c 4bae 3bae f1ae
000001c0: f2a5 f89c ef2c 13a3 52aa c8a9 242e 05a1
000001d0: 27ad 6f24 b4ae 55a6 e0a9 241c 70ac 4aa7
000001e0: c829 b72c 6aa4 462c 9222 9428 adad 302a
000001f0: ae2c 5d25 6fa8 e128 e7a7 291e 7a27 5329
-0.01354 0.06064 -0.05872 -0.0828 -0.08203 -0.06445 -0.09937 -0.1017
0.0861 -0.05472 0.00074 -0.08307 -0.00966 0.0746 0.0692 0.04218
0.01833 0.02905 0.07385 -0.01476 0.0002147 0.0815 0.03467 -0.07623
0.00457 -0.02591 0.04617 -0.0811 -0.0501 -0.007423 0.04044 0.05148
0.04608 -0.0614 0.03665 -0.0392 -0.0375 0.0563 0.0823 -0.10376
0.04907 0.06824 0.0234 -0.01042 -0.0795 -0.05832 -0.04953 -0.05347
0.02441 -0.07336 -0.08673 -0.0716 -0.06824 -0.05344 0.0635 0.0865
-0.01145 0.02893 0.0373 0.04578 -0.003328 0.03888 0.0636 0.06006
-0.0639 -0.004208 0.00808 0.04572 -0.03165 -0.0661 0.04865 -0.05228
-0.06885 0.03552 0.0334 -0.0968 0.04965 0.00739 -0.04898 0.08093
-0.0349 -0.06824 0.01732 0.0598 -0.1023 -0.0397 0.0457 0.0143
0.067 -0.03506 -0.1049 -0.01672 -0.0948 -0.01122 0.0774 0.0354
0.04037 -0.0742 -0.07904 -0.02432 0.09534 0.0914 -0.043 -0.06476
0.0358 0.04285 0.029 -0.02017 0.02322 -0.098 -0.08453 0.08374
-0.00705 -0.01024 -0.00209 -0.0715 -0.0527 0.0635 -0.01433 -0.06775
0.04147 -0.0424 -0.09717 -0.00431 0.06003 0.068 -0.0517 -0.0445
-0.03766 0.07745 0.014984 -0.0947 -0.05795 -0.0933 0.07 -0.08136
0.07275 0.007156 0.04678 -0.1028 -0.006718 -0.005314 0.0764 -0.04788
0.02078 -0.06555 0.0664 -0.10504 -0.02048 -0.07263 0.0543 0.06192
-0.09937 -0.0594 0.05835 0.09204 -0.10284 -0.0208 0.0833 0.03345
-0.00889 -0.10486 0.05002 0.072 -0.03265 -0.03238 0.02309 -0.0668
-0.0048 0.02354 0.0646 -0.00851 0.03177 -0.0662 -0.02356 0.003357
-0.0933 0.0383 0.0671 -0.04346 -0.02736 0.04605 0.05157 0.09283
0.04462 -0.07666 -0.01532 -0.04807 0.0395 -0.09247 -0.05698 -0.04727
0.03192 0.04376 0.009834 0.0281 0.04807 -0.0576 0.0944 -0.0507
0.05847 0.04483 0.0957 -0.08234 0.09174 0.01052 0.01738 -0.03317
0.075 0.002447 -0.013535 -0.02895 -0.066 -0.06537 -0.0822 -0.03326
0.03812 0.04324 0.01643 -0.0753 0.0693 -0.0983 -0.09735 -0.10846
-0.02322 -0.004852 0.0771 -0.01382 -0.04938 -0.04517 0.09595 -0.0098
-0.0805 0.01732 -0.10474 -0.02473 -0.0459 0.004044 -0.06934 -0.02847
0.04517 0.07367 -0.01724 0.0668 0.01283 0.03577 -0.0887 0.04834
0.0731 0.02095 -0.03464 0.03812 -0.03087 0.006016 0.0292 0.0416

arith.constant18 f2 [64, 3, 3, 32]
00000000: c8ac 0e2c a2a6 6e2a 37a6 3b28 27a8 65ac
00000010: 4ca3 b2ad c424 b0a9 3a27 d02c b32b baa5
00000020: e92b 23a9 e1a2 42a1 58a8 15ae cf20 17a8
00000030: 4125 dd1b aba3 0322 769a 4da3 6da7 2b96
00000040: 21ab dcac cc9e fa28 a3a8 2521 1028 1a29
00000050: 499a 8225 39ac a6a8 c09e 50a4 6ea2 55aa
00000060: 3bac a0a7 2aa6 39ad 9a2a 70ac ad24 ed9d
00000070: 17ac 009f 9b8a d6aa 32aa c42c c69c 0d21
00000080: 0928 ceaa e02b 24ac bcac 0ea8 be28 2a29
00000090: b32c b929 512a a0a8 8025 4729 2aa8 dba6
000000a0: b8a3 d32c cba6 20ad 6118 91ad b0a7 f621
000000b0: b026 61a4 8228 b8a8 36ab adaa 2927 27ac
000000c0: c123 bc96 15a8 31ac 87a9 e325 1f9f c9a9
000000d0: 641c baae c3a5 3da2 4cad a925 e5ab 29ad
000000e0: 8ba7 bda9 59ac 552b b6ac 8899 cd28 fe2c
000000f0: 8b2c 0daf 02ac feac 2028 012b 3728 fdaf
00000100: f4ac 962d cfa6 762c caaa 59ad 2c2b 6d28
00000110: 52a9 dfae d7ad 4c29 a2ac 9bac 3aa8 c5ad
00000120: 37a1 7cac 2320 ee28 6aae 69ae d22c b22c
00000130: ca9e 7826 d0ac ffa8 c4ad f5a9 179a caae
00000140: 41ad 7427 621e 412b faac e2aa 8ca5 5f29
00000150: 3196 30ae 8e29 25ac 0a2d a92c 1cac 99aa
00000160: 6cab c5a8 00ad cca5 a728 46b0 3eac 7720
00000170: 602c 7b28 26a9 de2b e82c e7a8 8aa4 33ad
00000180: c2a7 59aa 5fa0 8b28 23a5 c52c 8f2b 282d
00000190: e229 8f24 c1ac d5ac d426 a02c 9826 adad
000001a0: 54a7 7e26 6226 8f15 35af a6b0 362c a328
000001b0: b7a4 3628 472a 7fa4 722b 312c 8426 60af
000001c0: ebac a62d f62c b59c 502a b02b b724 82ac
000001d0: d327 02ac d725 06a8 8b2c ef2c 49a1 eaaf
000001e0: 6a21 8d26 48a6 32ac 5aa7 d3ae d5ac d6aa
000001f0: 2bab 35af c6ad a828 592a 5322 b126 c828
-0.0747 0.06335 -0.02591 0.05023 -0.02428 0.03305 -0.03244 -0.06866
-0.01425 -0.089 0.01862 -0.04443 0.02823 0.0752 0.06015 -0.02237
0.0618 -0.04013 -0.013435 -0.01027 -0.03394 -0.09503 0.00939 -0.03195
0.02052 0.00384 -0.01498 0.01174 -0.003155 -0.01426 -0.029 -0.001506
-0.0557 -0.0759 -0.006638 0.03888 -0.03622 0.01005 0.03174 0.03986
-0.003069 0.02151 -0.066 -0.03632 -0.00659 -0.01685 -0.01256 -0.04947
-0.0661 -0.02979 -0.02408 -0.0816 0.05157 -0.06934 0.01826 -0.005787
-0.0639 -0.006836 -0.0002016 -0.0534 -0.0484 0.07446 -0.00466 0.009865
0.03152 -0.05316 0.06152 -0.0647 -0.074 -0.03168 0.03705 0.04034
0.0734 0.0447 0.04935 -0.03613 0.02148 0.04123 -0.03253 -0.02678
-0.015076 0.0754 -0.02654 -0.0801 0.002138 -0.087 -0.03003 0.01164
0.02612 -0.0171 0.03522 -0.03687 -0.05634 -0.05215 0.02797 -0.0649
0.015144 -0.001644 -0.0319 -0.0655 -0.04318 0.023 -0.006954 -0.0452
0.004288 -0.1051 -0.0225 -0.012184 -0.08276 0.02211 -0.06168 -0.0806
-0.02946 -0.04483 -0.06793 0.05728 -0.0736 -0.0027 0.0375 0.078
0.071 -0.11017 -0.0626 -0.078 0.03223 0.05472 0.03293 -0.1248
-0.0774 0.0873 -0.0266 0.0697 -0.05304 -0.08356 0.05603 0.03458
-0.04156 -0.10736 -0.09125 0.04138 -0.0724 -0.07196 -0.03302 -0.09015
-0.010185 -0.07007 0.00808 0.0385 -0.1002 -0.10016 0.0753 0.07336
-0.00663 0.02527 -0.0752 -0.03903 -0.0901 -0.04654 -0.002974 -0.1061
-0.0821 0.02911 0.006233 0.05667 -0.07776 -0.05377 -0.02167 0.04196
-0.001512 -0.0967 0.0434 -0.06476 0.07874 0.0728 -0.0642 -0.05154
-0.05798 -0.03726 -0.0781 -0.02264 0.03635 -0.1335 -0.0663 0.00872
0.06836 0.035 -0.04022 0.06146 0.07666 -0.0383 -0.01773 -0.08124
-0.0303 -0.0496 -0.00854 0.0355 -0.02007 0.0745 0.05905 0.08057
0.04596 0.0178 -0.0743 -0.0755 0.02667 0.07227 0.02576 -0.0887
-0.02863 0.02536 0.02493 0.001357 -0.1126 -0.1453 0.0658 0.03622
-0.01842 0.0329 0.04904 -0.01756 0.05817 0.0655 0.02545 -0.11523
-0.07684 0.08826 0.0775 -0.004597 0.04932 0.06006 0.01842 -0.07043
0.03056 -0.0626 0.02281 -0.03143 0.071 0.0771 -0.01032 -0.12366
0.010574 0.02559 -0.02454 -0.06555 -0.02872 -0.1066 -0.0755 -0.0534
-0.056 -0.1126 -0.0902 0.03638 0.0496 0.01235 0.02614 0.03735

arith.constant19 f2 [64, 3, 3, 64]
00000000: 18a9 4da5 fcab c926 1629 30a6 882b 911f
00000010: 9aa4 87a0 d3a8 8e28 7ba7 0aa7 b6ac 5725
00000020: 462b b5a5 d6a4 a9a8 16ac fa28 f9a5 e7a5
00000030: 16ac d9ac 55a4 9522 992c eb88 ac2a a8a4
00000040: a3aa 01a4 9324 3d29 3f29 1aad c229 c921
00000050: 5021 e4aa 05ac 04ad a82a c7a9 efa9 c1a9
00000060: 831d f729 322a 8529 6cab 0607 ba29 d52a
00000070: 1aa9 6d23 1ca4 abac 192c 092b 641f 4fa8
00000080: 71a5 490c c1a9 cca5 64ac 7d24 9920 2f26
00000090: a1a9 45a6 a397 7dab 3924 4dac ae1c d22a
000000a0: 00a5 6e26 1e20 3f24 db1f d229 9628 42ac
000000b0: 489e a0a9 c1a9 ceab 1b27 6c1e f99d 9f2a
000000c0: 62a8 5928 4ba4 78ab 0128 bcab 362a c52a
000000d0: f49e 5fa9 da2b 8022 68ac e0aa 4729 20ac
000000e0: f12a 63ac 342a d529 3bad 0cac 0d29 0dac
000000f0: 2b2a 5227 9ca4 0cab 9fab 602c 3a88 feac
00000100: c22a b7ab 1bac eb9f 0f29 baac e1a2 eba4
00000110: 05ac d02a 2fa0 089e 18a4 a5ac 0229 d816
00000120: 51aa c825 1d9f edac da1f 72ab 171e 3029
00000130: a5a5 bc2c 11a8 9fa3 1b27 301f 0729 6aab
00000140: c4a9 9a2b 5c24 632a 252b 899e aba6 1d2a
00000150: 401d 06ad 56ac fba5 d329 e5ac 18aa 09ac
00000160: ce2a 0626 86a5 3da6 64a9 701f 0c26 7927
00000170: 0e2b 04aa 3ba3 6728 d7a9 902a 93a1 8027
00000180: 98ac 2c28 5da9 4520 6e2b 8527 7529 8d23
00000190: 1da3 37a6 36a7 7a2b 09ac 9eac 722a 6ba3
000001a0: b0a1 82ad 55ac a92a 7eac 47a1 90a8 2eac
000001b0: 20ad db24 7125 6ca7 a6a8 6fa9 c1a4 fba2
000001c0: f2a9 21a8 509f f5a8 9e20 16ac 1096 3d2a
000001d0: b5ac af21 6823 cd25 a6a9 8e28 07ac 0928
000001e0: cb99 fcab 2525 2aac 2b21 3c28 eaa9 1da2
000001f0: 2529 8eaa 1da0 9daa 82ac d7a8 9fac 00a6
-0.0398 -0.0207 -0.06238 0.0265 0.03973 -0.02417 0.05884 0.00739
-0.01797 -0.00884 -0.0377 0.03558 -0.02922 -0.0275 -0.0736 0.02086
0.05682 -0.0223 -0.01889 -0.0364 -0.06384 0.03888 -0.02333 -0.02306
-0.06384 -0.07574 -0.01692 0.012856 0.07184 -0.0001501 0.05212 -0.01819
-0.05185 -0.01564 0.01787 0.04092 0.041 -0.0797 0.04498 0.0113
0.010376 -0.05383 -0.0628 -0.07837 0.052 -0.04514 -0.04636 -0.04495
0.005383 0.0466 0.0484 0.04312 -0.05798 0.00010717 0.04474 0.05338
-0.03986 0.0145 -0.01605 -0.07294 0.064 0.05496 0.007217 -0.03366
-0.02126 0.0002615 -0.04495 -0.02264 -0.0686 0.01753 0.00898 0.02415
-0.04398 -0.02449 -0.001864 -0.0585 0.0165 -0.0672 0.00457 0.05328
-0.01953 0.02512 0.00804 0.01659 0.00767 0.04547 0.03583 -0.0665
-0.006134 -0.04395 -0.04495 -0.06097 0.02776 0.00627 -0.005833 0.05173
-0.03424 0.03397 -0.01677 -0.05835 0.03128 -0.06042 0.04852 0.0529
-0.00679 -0.04196 0.06134 0.012695 -0.06885 -0.0537 0.04123 -0.06445
0.05423 -0.06854 0.04846 0.04556 -0.0817 -0.06323 0.03946 -0.0633
0.0482 0.0286 -0.018 -0.05505 -0.05954 0.06836 -0.000129 -0.078
0.0528 -0.06027 -0.06415 -0.007732 0.03952 -0.07385 -0.013435 -0.01921
-0.0628 0.05322 -0.00817 -0.00589 -0.01599 -0.0726 0.03912 0.001671
-0.04935 0.02258 -0.006947 -0.07697 0.007668 -0.05817 0.005947 0.04053
-0.02205 0.074 -0.03177 -0.014885 0.02776 0.00702 0.03928 -0.05792
-0.04504 0.0594 0.01703 0.0499 0.05582 -0.006382 -0.02605 0.04776
0.005127 -0.0785 -0.06775 -0.02336 0.0455 -0.0765 -0.0476 -0.06305
0.05316 0.02353 -0.02158 -0.02437 -0.0421 0.007263 0.02362 0.02919
0.0551 -0.047 -0.01412 0.0344 -0.04562 0.05127 -0.01089 0.0293
-0.0718 0.0326 -0.0419 0.00834 0.05804 0.02937 0.04263 0.01475
-0.01389 -0.02428 -0.02817 0.0584 -0.06305 -0.07214 0.05035 -0.01449
-0.01111 -0.08606 -0.0677 0.05203 -0.0702 -0.01031 -0.03564 -0.0653
-0.0801 0.01897 0.02126 -0.02899 -0.03632 -0.04245 -0.01857 -0.01363
-0.04645 -0.03226 -0.00714 -0.03873 0.00902 -0.06384 -0.00148 0.04874
-0.07355 0.0111 0.014465 0.02266 -0.04413 0.03558 -0.0629 0.03152
-0.002829 -0.06238 0.0201 -0.06506 0.01009 0.03308 -0.0462 -0.01194
0.0402 -0.0512 -0.00803 -0.05167 -0.07043 -0.0378 -0.0722 -0.02344

arith.constant20 f2 [128, 3, 3, 64]
00000000: c9aa 2bab c6a7 2e2d 3229 6c28 7226 94a5
00000010: 1a28 e0a8 b02a 462a e925 2f25 6ba8 3d2c
00000020: f426 31aa 0ca4 d82c 0faa c72a b228 8ba9
00000030: c122 79a0 cbaa 4dac 72ab cb28 b628 c028
00000040: 2027 c4a8 d3aa b02a 2f1e 2225 7e20 39a6
00000050: 4cab 909e f6a0 b225 0d22 c696 ea26 eea8
00000060: ba1c fa9a 382b 0ba3 caab 2d94 3d1f b4a7
00000070: a7a4 c8a6 66a8 bb23 ed24 bda2 912a dfa8
00000080: bda2 fba9 0520 352d ba2e ef26 a828 f22c
00000090: 9699 4528 7aa0 a42a cb9f 45a2 84a7 712c
000000a0: 152c 3199 442a 372e d029 7aaa 20a6 fb2a
000000b0: e421 cf25 79a8 23aa d1a7 a8a7 bca0 cc9e
000000c0: 02a4 28a8 1b2b 44aa c5a9 5128 fd2b bca8
000000d0: 54a9 5223 1ea1 18a6 5022 3e28 4229 592a
000000e0: fda1 d6a8 5b29 bb26 a828 6f23 1128 ad2a
000000f0: f6a9 aca9 99a9 9f2d 982b b129 0124 a4a5
00000100: 1b2c 5aa4 6528 1ca8 252b faa7 1ea1 cd1f
00000110: 9ba9 eba7 1c28 2f21 7222 7aab c21f 82a9
00000120: 6a22 1923 9d23 d3a1 6f2a 4428 73a3 89a6
00000130: 711f aca5 21a8 8b2b 4728 6726 b822 24a1
00000140: 7f1e ab29 391c ca28 58a8 2328 fc22 82a2
00000150: e4a1 1e1d 4c29 c6a8 7e29 7326 8e22 f31c
00000160: 0ba8 8b2b 84a6 ee26 5ba8 1ba1 2fa9 17ab
00000170: 4daa 4428 8729 082b c817 46a7 fd28 b7a7
00000180: acaa 4329 8529 d720 fe2c fd29 0ca6 73a7
00000190: b219 8a29 2da7 6b23 c222 e4a9 c924 9e2f
000001a0: daa8 7ba7 4527 da9e 029b 1b2a 4222 3a29
000001b0: b5a9 e2aa da28 dc26 10a6 b429 5023 73a5
000001c0: 792a c12c ada6 4e24 dca4 84a9 252a 10a9
000001d0: b71a 4e2b 43a9 72a5 a6a7 622a 7fa8 96a5
000001e0: 7e28 be29 3f22 0ea5 77a9 0a24 52a0 9829
000001f0: f9a4 c728 b527 0d2b 322c 612c a12a c9a0
-0.053 -0.056 -0.03036 0.08093 0.0406 0.03455 0.02518 -0.02179
0.03204 -0.0381 0.05225 0.049 0.02309 0.02025 -0.03452 0.0662
0.02716 -0.04837 -0.01581 0.0757 -0.04733 0.05295 0.03668 -0.0433
0.01319 -0.008736 -0.05307 -0.0672 -0.05817 0.03745 0.0368 0.0371
0.02783 -0.03723 -0.0533 0.05225 0.00604 0.02005 0.00877 -0.0243
-0.057 -0.00641 -0.00969 0.02225 0.01182 -0.001654 0.02701 -0.0385
0.004616 -0.003407 0.0564 -0.013756 -0.06085 -0.0010195 0.00707 -0.03009
-0.01817 -0.02649 -0.03436 0.0151 0.01924 -0.01316 0.0513 -0.03806
-0.01316 -0.04672 0.00785 0.08136 0.1051 0.02708 0.03638 0.0773
-0.002728 0.03336 -0.00874 0.05188 -0.00761 -0.012245 -0.02936 0.0694
0.0638 -0.002535 0.04895 0.0971 0.0454 -0.0506 -0.02393 0.05453
0.011505 0.02269 -0.03494 -0.04794 -0.03053 -0.0299 -0.00925 -0.006638
-0.01566 -0.03247 0.0555 -0.04895 -0.04507 0.03372 0.0624 -0.037
-0.04163 0.0143 -0.009995 -0.0238 0.01233 0.03314 0.04108 0.0496
-0.011696 -0.03778 0.04184 0.02629 0.03638 0.01452 0.03177 0.05215
-0.04657 -0.0443 -0.04373 0.0878 0.05933 0.04446 0.01564 -0.02203
0.06415 -0.017 0.03433 -0.0321 0.05582 -0.03116 -0.009995 0.007618
-0.0438 -0.03093 0.0321 0.010124 0.01259 -0.0584 0.007576 -0.04303
0.01253 0.01386 0.01487 -0.011375 0.05026 0.03333 -0.01455 -0.02553
0.007267 -0.02216 -0.03226 0.05893 0.03342 0.02501 0.01312 -0.01004
0.006344 0.04428 0.004124 0.0374 -0.03394 0.03232 0.01364 -0.01271
-0.011505 0.004997 0.04138 -0.0373 0.0429 0.02519 0.0128 0.004833
-0.0316 0.05893 -0.02545 0.02707 -0.03403 -0.00997 -0.0405 -0.0554
-0.04922 0.03333 0.04318 0.05493 0.0019 -0.02841 0.03897 -0.03014
-0.05212 0.0411 0.04312 0.00945 0.078 0.04678 -0.02362 -0.0291
0.00278 0.04327 -0.02803 0.01449 0.0132 -0.04602 0.01869 0.119
-0.0379 -0.02922 0.0284 -0.00669 -0.003422 0.0477 0.01222 0.04083
-0.0446 -0.05377 0.0379 0.0268 -0.02368 0.04456 0.01428 -0.02129
0.05057 0.0743 -0.02608 0.01682 -0.01898 -0.0431 0.048 -0.03955
0.003279 0.05707 -0.0411 -0.02127 -0.02988 0.04987 -0.03513 -0.02182
0.0351 0.04486 0.0122 -0.01974 -0.0427 0.01578 -0.00844 0.0437
-0.01942 0.03732 0.0301 0.05508 0.06555 0.0684 0.0518 -0.009346

arith.constant21 f2 [128, 3, 3, 128]
00000000: f1a7 36a1 b228 1b27 5f27 04a2 a528 6720
00000010: 43a6 111f d521 b526 f229 bb22 cda9 75a5
00000020: 50a9 431d ccaa 1726 4626 3028 a929 6aaa
00000030: 7c27 b128 d3a8 5a25 77a7 a727 84a8 ef20
00000040: 79ab 379f 88a8 3ea8 0b29 1fa8 8129 6926
00000050: aaa9 2824 43a9 382b eb2a 8e2b 4625 58a2
00000060: 8e29 40a5 db25 c1a6 6228 0ba9 7ca8 7629
00000070: b4a7 59a4 f6ab adaa 0da8 3029 ed26 e92a
00000080: 2ea3 461d e01d 28a5 8fa8 95ab b021 6f1d
00000090: 65a5 d49f a029 9d29 0329 ee25 45a9 8a2c
000000a0: 1d2c 4425 3729 0b2a 2e96 15ac 6fa8 3f22
000000b0: 921d 0aa6 3720 7128 27a9 8faa 1e2c baaa
000000c0: bc21 5824 5223 6027 26aa 6aa5 8628 9126
000000d0: 4828 cea7 5429 af1d 3b29 9fa1 cca3 3a2b
000000e0: d0ad 22aa e19c e222 58ab 02a5 6d9a 4d2a
000000f0: b628 2529 6f27 441c 88aa 342b bba9 11a6
00000100: fda8 ab20 7c25 b626 0529 8fa7 6828 4725
00000110: 00a7 1eaa 4123 aba5 c524 c928 12a9 2c2d
00000120: bca4 6124 ed21 6a21 719c d320 7429 8ca9
00000130: 4c20 de26 6a21 fe28 0928 44a4 4ea7 d225
00000140: e6a6 1ca5 7fa4 839a 82a4 22a7 4ca0 44a6
00000150: a428 aa26 0eaa c9a8 b02a 779e b0ab 532d
00000160: 1a2b c1a7 b229 4c23 1123 b7a8 7b2a 5f29
00000170: 04a0 69a0 1797 f621 1da4 6026 172b 4723
00000180: a42a 2828 5122 d2a5 4ea1 0022 5b96 cf1a
00000190: ee2c 91ab 0f28 182b 9a94 552b 9d9d 672a
000001a0: a826 4626 16a5 e827 c929 f5aa 50a5 a329
000001b0: a0a8 e3a5 f5a3 631f 0f28 92a9 7321 34ac
000001c0: b79c fea4 b323 1c2b cf29 55a8 36a4 4e9e
000001d0: df24 f521 a126 f79f 1b2c 4d9d 38a1 2d27
000001e0: 9fa9 1428 7f2c 792c 89a2 2a25 2a29 e5a7
000001f0: 2428 fc28 a4ab fca6 5baa 351a ac26 102c
-0.03102 -0.01018 0.03668 0.02776 0.0288 -0.01175 0.0363 0.0086
-0.02446 0.0069 0.01139 0.0262 0.04645 0.013145 -0.04532 -0.02132
-0.0415 0.00514 -0.0531 0.02379 0.0245 0.0327 0.04422 -0.0501
0.02924 0.03665 -0.0377 0.0209 -0.02916 0.02989 -0.03528 0.009636
-0.05838 -0.007046 -0.0354 -0.03314 0.0394 -0.0322 0.043 0.02504
-0.04425 0.01624 -0.0411 0.0564 0.05405 0.05902 0.0206 -0.01239
0.0434 -0.02051 0.02287 -0.02638 0.03424 -0.0394 -0.03503 0.04266
-0.03009 -0.01698 -0.0622 -0.05215 -0.03165 0.04053 0.02705 0.054
-0.01402 0.00515 0.005737 -0.02014 -0.0356 -0.05923 0.01111 0.005306
-0.02107 -0.007645 0.04395 0.04385 0.03915 0.02316 -0.04117 0.0709
0.0643 0.02057 0.04074 0.0472 -0.001509 -0.0638 -0.03464 0.0122
0.00544 -0.02359 0.00823 0.0347 -0.04025 -0.05124 0.06433 -0.05255
0.0112 0.01697 0.0143 0.02881 -0.04803 -0.02115 0.03534 0.02565
0.03345 -0.03049 0.04163 0.00555 0.04086 -0.01098 -0.01523 0.05646
-0.0908 -0.0479 -0.004765 0.01344 -0.05737 -0.01956 -0.003138 0.04922
0.0368 0.0402 0.02904 0.004166 -0.05103 0.05627 -0.04477 -0.0237
-0.03897 0.00912 0.02142 0.02621 0.0392 -0.02953 0.03442 0.02061
-0.02734 -0.0478 0.01417 -0.02214 0.01863 0.03738 -0.0396 0.0808
-0.0185 0.0171 0.01157 0.010574 -0.004337 0.00942 0.0426 -0.04333
0.00839 0.02682 0.010574 0.039 0.03152 -0.01666 -0.02853 0.02274
-0.02695 -0.01996 -0.01756 -0.00318 -0.01761 -0.02786 -0.00839 -0.02448
0.03625 0.02603 -0.0473 -0.03738 0.05225 -0.006313 -0.06006 0.0832
0.05548 -0.03029 0.0445 0.01425 0.0138 -0.03683 0.05063 0.04196
-0.00784 -0.00861 -0.001731 0.01164 -0.01607 0.0249 0.0554 0.01421
0.05188 0.03247 0.01234 -0.02274 -0.01036 0.01172 -0.001552 0.003325
0.077 -0.0591 0.0317 0.05542 -0.001123 0.05728 -0.00548 0.05002
0.026 0.0245 -0.01987 0.03088 0.0452 -0.05435 -0.02075 0.04404
-0.03613 -0.023 -0.01554 0.007214 0.0317 -0.04352 0.01064 -0.0657
-0.004604 -0.0195 0.01504 0.05554 0.04538 -0.03384 -0.01645 -0.006157
0.01903 0.011635 0.0259 -0.00778 0.06415 -0.005177 -0.01019 0.02803
-0.0439 0.03186 0.07025 0.0699 -0.012764 0.02017 0.04034 -0.03084
0.03235 0.03894 -0.0597 -0.02728 -0.04965 0.00303 0.02606 0.0635

arith.constant22 f2 [64, 3, 3, 192]
00000000: 0aab 5aa1 c423 2d10 4c29 0ea1 1f1f 9eaa
00000010: d6a0 409e 512a 76aa 6229 53a8 13aa d3ab
00000020: 0424 0616 a8a6 c0a5 a92a 81a6 fe21 d1a2
00000030: a8a6 ae22 27a9 3cac 9ba1 e921 b326 2825
00000040: 68a8 f428 1129 e5a4 9b23 839d 2f1b 3c27
00000050: 2491 2c22 6825 1122 2129 3626 cf10 1027
00000060: 87a9 7828 759a cfa6 7d28 a09e 259c 6428
00000070: 5bac 0fa8 69a9 489e daa9 1128 a6a5 44a6
00000080: c98b 9ea9 12a8 bd20 5224 1d25 9cab 7ca8
00000090: b1ab 60aa 3da7 99a3 15a8 baa3 15ab c89e
000000a0: 7fa9 dca4 d728 d8aa a8aa 03a5 d7a6 5620
000000b0: 2c1e f220 0fa5 07a7 ce25 388d 3127 1527
000000c0: 5390 2fa5 341b 6eab aa1b 4b25 d0a9 661a
000000d0: f324 1da7 40a8 469d 69a8 9dab 509b c8a4
000000e0: f8a6 69aa c725 3fa8 a62a c522 5a10 baaa
000000f0: d828 df28 2cac aea5 93a9 6ea8 3c9e 2a25
00000100: 6325 a8a2 ae29 78a9 b9a3 f5a9 0d23 72a9
00000110: bfa9 55a8 1e2a 0020 d625 1120 e8a8 2ca6
00000120: 63a3 1ca0 75a9 e9a4 171d 3b97 1324 cbab
00000130: 2da8 7c28 5a23 b226 a8aa faa8 fba2 62a9
00000140: 3025 b324 db20 2a24 b3aa 4e29 4aa7 c9a9
00000150: 399d 6ba0 1027 9ca3 a5a1 e0a9 3899 c1a6
00000160: 09a8 b6aa dc22 e924 4fa6 68a8 2327 5826
00000170: cba8 b59f d79e 059d e528 a11e 0e0f 2ea8
00000180: 9d24 a2a7 d691 3828 5824 a329 83a7 97a2
00000190: c521 4da7 7198 fe15 ae2a 69a8 1caa c6a9
000001a0: 448a 93a3 7092 12aa 1fa9 171e 7ea3 17ac
000001b0: 4823 7c97 beab 7ea8 08a8 8ea0 c2a4 b225
000001c0: 9325 9f28 df21 9226 24a8 e306 af21 06a2
000001d0: bc25 928c 6326 6228 4528 ed19 b81c 9aab
000001e0: 0baa 7528 db29 1aaa 15a4 81aa 06a8 6a28
000001f0: aba9 1d24 5922 93ab 9826 a526 e8a4 0fac
-0.055 -0.01045 0.01517 0.0005097 0.04138 -0.00987 0.006954 -0.0517
-0.009445 -0.006104 0.04935 -0.05048 0.04205 -0.03378 -0.04745 -0.06113
0.01569 0.001471 -0.026 -0.02246 0.05203 -0.0254 0.0117 -0.01331
-0.026 0.01305 -0.04025 -0.06616 -0.01095 0.01154 0.02617 0.02014
-0.03442 0.0387 0.03958 -0.01912 0.014854 -0.005383 0.003508 0.02826
-0.0006275 0.012054 0.02112 0.01185 0.04007 0.02426 0.000587 0.02759
-0.04318 0.0349 -0.003153 -0.0266 0.03506 -0.00647 -0.004047 0.0343
-0.06805 -0.0317 -0.04227 -0.006134 -0.04572 0.03177 -0.02206 -0.02448
-0.0002376 -0.04388 -0.0318 0.009254 0.01688 0.01997 -0.05945 -0.03503
-0.0601 -0.0498 -0.02827 -0.01484 -0.0319 -0.01509 -0.05533 -0.006622
-0.04294 -0.01898 0.0378 -0.05347 -0.052 -0.01958 -0.02672 0.00847
0.006027 0.00966 -0.01976 -0.02745 0.02267 -0.0003185 0.02809 0.02766
-0.000528 -0.02025 0.003517 -0.05804 0.003742 0.02068 -0.0454 0.003124
0.01933 -0.02779 -0.0332 -0.00515 -0.03445 -0.05948 -0.00357 -0.01868
-0.02722 -0.05008 0.02257 -0.03317 0.05194 0.01322 0.000531 -0.05255
0.03784 0.03806 -0.0652 -0.02219 -0.04355 -0.0346 -0.00609 0.02017
0.02104 -0.013 0.04437 -0.04272 -0.01508 -0.04654 0.01377 -0.04254
-0.0449 -0.03384 0.0478 0.007812 0.0228 0.00794 -0.03833 -0.02411
-0.01443 -0.008026 -0.04263 -0.01918 0.00497 -0.001765 0.01591 -0.06088
-0.03262 0.03503 0.01436 0.02615 -0.052 -0.03888 -0.01363 -0.04205
0.02026 0.01836 0.00948 0.01627 -0.05234 0.04144 -0.02847 -0.0452
-0.0051 -0.00863 0.02759 -0.01486 -0.011024 -0.0459 -0.002548 -0.02638
-0.03152 -0.05243 0.0134 0.01918 -0.02464 -0.03442 0.02788 0.02478
-0.03745 -0.007526 -0.00668 -0.0049 0.03824 0.006474 0.0004306 -0.03265
0.01802 -0.02982 -0.0007124 0.03296 0.01697 0.04404 -0.02934 -0.01287
0.01127 -0.02852 -0.002169 0.001463 0.0522 -0.03445 -0.04773 -0.0451
-0.0001912 -0.01479 -0.000786 -0.04742 -0.04 0.005947 -0.01463 -0.0639
0.01422 -0.001827 -0.0605 -0.0351 -0.0315 -0.008896 -0.01859 0.02225
0.02177 0.0361 0.01147 0.02567 -0.03235 0.0001051 0.0111 -0.011765
0.0224 -0.000279 0.02495 0.03424 0.03336 0.002893 0.00461 -0.0594
-0.0472 0.03482 0.04575 -0.04767 -0.01595 -0.0508 -0.03143 0.0345
-0.04428 0.01607 0.0124 -0.05917 0.02576 0.02596 -0.01917 -0.0634

arith.constant23 f2 [32, 3, 3, 96]
00000000: cd23 d528 0221 c72c 961f 68a9 7fa7 aaab
00000010: e1a8 df2b 5127 4c22 d22c cb28 1f2c f82c
00000020: 5da6 7c2c 9628 642a 0fa8 c72a c819 8124
00000030: 0b29 d926 d9a8 6ca1 47a9 2faa 3227 ef2a
00000040: 00a8 e7a9 bc26 dca8 a52c 01a8 cd9d f4a8
00000050: 1da8 d529 4727 c8a4 052c 9429 7f24 db23
00000060: e7a9 4d21 67a8 cd26 542b 611b c228 001c
00000070: fc28 5aa0 9dac 9dad 8517 a6ac 1caa 4e28
00000080: baa1 d7aa 3628 30a8 d229 1fa0 f028 f42a
00000090: 37a8 e2aa 4ea6 4122 642c d122 172c e12a
000000a0: 709e e1a2 492a aaaa 2526 67a9 3d24 9829
000000b0: f724 0919 39a9 a9a9 822c d220 8f2b ce2a
000000c0: ef2a 1eac ca26 0faa 58a9 19a8 9d94 9827
000000d0: 302a 4baa efa9 ea22 10a8 182b 3c2c 651f
000000e0: 21ab 5524 8ca8 182c 54a8 0b29 eb2a 37a3
000000f0: 66a8 c524 7127 362c f6a5 e4a9 d49f f0a7
00000100: 59a4 29a8 221d fe20 952c c7ab 60ac 8bab
00000110: c7ab ffa4 809b 3b29 02a9 cdac 1a2c 8d1e
00000120: 34a5 efa8 70ab dc9e 19ab 42ab bbab 1fa6
00000130: 3f9d 7fa9 632b a71b 4524 aea8 6529 7627
00000140: 552a 19ac 9d9c c12c 222c 692a 96a6 76a4
00000150: a62b 042c fd28 6caa 192b 34a6 88aa 4e99
00000160: 3a27 0a2c 142a e125 3a26 1621 f1aa 19ac
00000170: 6d2a e7aa 24aa a521 85a8 05a7 69a0 ebaa
00000180: 5e2c 80a4 ba19 04ac 1a2a d9ac 61ac 6225
00000190: 0da9 1929 3f25 ed2a 3da1 422a 4c1c 2c20
000001a0: c728 9e9f 0a20 06a9 3ca9 3a2c caa8 9a2c
000001b0: fa2b 01ab 4d1c 37ab 4c2b 1f24 5514 b2aa
000001c0: 60a7 6d2b 08a8 50ab 50aa dc28 0226 b7a8
000001d0: 78ab 252b 1fa9 b221 edaa c3a9 4ea9 139f
000001e0: 7b22 4e2c 6a29 eaaa 15ac 9fac d22a 4622
000001f0: 0b1a caa4 72a8 a723 e3a8 aa29 c02a 9aa5
0.015236 0.03775 0.00978 0.07465 0.00741 -0.04224 -0.02928 -0.05988
-0.03812 0.0615 0.02858 0.0123 0.0753 0.03745 0.0644 0.07764
-0.02486 0.07007 0.03583 0.04993 -0.0317 0.05295 0.002823 0.0176
0.0394 0.02675 -0.03787 -0.01059 -0.04123 -0.0483 0.0281 0.05417
-0.03125 -0.0461 0.0263 -0.03796 0.0726 -0.03128 -0.005665 -0.0387
-0.03214 0.04556 0.02843 -0.01868 0.0628 0.04358 0.01756 0.01534
-0.0461 0.01035 -0.0344 0.02657 0.05725 0.003603 0.03717 0.003906
0.03894 -0.0085 -0.0721 -0.0877 0.001836 -0.07263 -0.04773 0.03363
-0.011185 -0.05344 0.0329 -0.0327 0.04547 -0.00805 0.03857 0.05432
-0.03293 -0.05377 -0.02463 0.012215 0.0686 0.01331 0.0639 0.05374
-0.006287 -0.013435 0.0491 -0.05206 0.024 -0.0422 0.01656 0.0437
0.0194 0.002459 -0.0408 -0.04422 0.07043 0.009415 0.05905 0.05316
0.05417 -0.06433 0.02652 -0.04733 -0.04175 -0.032 -0.001126 0.02966
0.04834 -0.04916 -0.04636 0.013504 -0.03174 0.05542 0.06616 0.00722
-0.0557 0.01692 -0.03552 0.06396 -0.0338 0.0394 0.05405 -0.01409
-0.03436 0.01863 0.02907 0.0658 -0.02328 -0.04602 -0.007645 -0.031
-0.01698 -0.0325 0.005013 0.00975 0.0716 -0.06076 -0.06836 -0.05893
-0.06076 -0.01952 -0.003662 0.04086 -0.03912 -0.075 0.0641 0.006397
-0.02032 -0.03854 -0.0581 -0.0067 -0.05545 -0.0567 -0.0604 -0.02391
-0.005123 -0.04294 0.0577 0.003736 0.01668 -0.03656 0.04214 0.02914
0.04947 -0.064 -0.004505 0.0743 0.0646 0.05008 -0.02573 -0.01743
0.05975 0.06274 0.03897 -0.05017 0.05545 -0.02423 -0.05103 -0.00259
0.02823 0.0631 0.0475 0.02296 0.02432 0.00993 -0.05423 -0.064
0.0502 -0.05392 -0.04797 0.011024 -0.0353 -0.02742 -0.00861 -0.05405
0.06824 -0.01758 0.002796 -0.06274 0.04767 -0.07574 -0.0684 0.02103
-0.03946 0.03983 0.0205 0.0541 -0.01023 0.0489 0.004196 0.00815
0.03732 -0.00744 0.00789 -0.03925 -0.0409 0.06604 -0.0374 0.0719
0.06232 -0.05472 0.0042 -0.05637 0.057 0.0161 0.001058 -0.0523
-0.02881 0.058 -0.0315 -0.05713 -0.04932 0.03796 0.02347 -0.03683
-0.05835 0.05582 -0.04 0.01112 -0.0541 -0.045 -0.04144 -0.00691
0.01266 0.06726 0.0423 -0.05402 -0.0638 -0.0722 0.05328 0.01225
0.00295 -0.0187 -0.03473 0.014946 -0.03818 0.04425 0.05273 -0.02188

arith.constant24 f2 [16, 3, 3, 48]
00000000: ddaa 76ad 6c2c 64a5 d5ad 99ae f326 b4ae
00000010: bc9a 6cac fdac ce29 6aae 93ae 0b22 d1ad
00000020: 7bac 99ac a6a2 58ab 8d2a 0fad 5ca9 f3ab
00000030: 5421 922d 78a9 60aa 6c2c bcad f922 862c
00000040: fe27 49ad 3b23 b3a8 a626 4d2d 6a99 3fa9
00000050: 7c2d 0129 a89f 3a9a d9ab 5ca7 eb2d f3aa
00000060: b2ae 3ba8 7528 859d e22c 3d2c 052b 2a20
00000070: ca99 c0ac b328 57a4 732d 2ca5 ca2c 74ab
00000080: 52ac d9a7 8f2d 682d dbad 5528 06ad e829
00000090: 252e da2c 59a9 80ae 53ad f218 86aa c224
000000a0: 65a3 be1a 459d 7cab 80aa 6524 d828 88a5
000000b0: bcae 17ac 3729 1829 c0ad 622c 482d 5c27
000000c0: daac 9ca8 682d 282d bb9b 282d b911 8328
000000d0: d42c ebac d026 46ae 36ad 1427 4eac aa2c
000000e0: 882c 2bae b02c 2dad 75a9 f4a6 b8ab d92b
000000f0: db27 3027 2daa 7897 692b 6c23 8828 672d
00000100: 4fa5 b52d f626 ef2b 0e2c 95ad 8f9e d529
00000110: c0a9 ceac f499 e620 dbad a22c 2c21 5d21
00000120: 9fa8 059d 5824 e8a7 822d 7029 282c 2fab
00000130: e22c ae2c b626 512d 3e1f 63ab 3f2b 9028
00000140: cfac 692c 8c1d fe2a 56a6 4b2c dda5 2c23
00000150: 57ac 1aae f5a1 59ad a9ad 2c2e 4399 db2a
00000160: 822a 24a8 7b29 c720 de25 65ae e4a7 daae
00000170: c12a d7a0 4e2d 34aa 2824 20a9 a6a9 052e
00000180: 2fa4 e1ad cba2 4c2b acad 582d aeab fc29
00000190: abad 342e 5dad b4ac 2a2a 32a9 131d 80ac
000001a0: 8c2c 6222 2920 9328 2ca9 2c28 7dad a422
000001b0: 6f24 bbac 80ac 9ca4 2d2d e1aa bba9 6f2c
000001c0: 262a 05a8 6f29 7cac d22c 9ea4 b8a2 e3ad
000001d0: 1c29 9a99 5ea8 2713 b4a7 60ab 4824 57ac
000001e0: 73ad e72b ffad 5ca8 42aa abac 7ba9 3dad
000001f0: 82ac aa24 3726 ecad cb28 11ac ccaa 8822
-0.05362 -0.0853 0.0691 -0.02106 -0.0911 -0.1031 0.02715 -0.10474
-0.003288 -0.0691 -0.07794 0.04535 -0.1002 -0.1027 0.0118 -0.0909
-0.07 -0.07184 -0.012985 -0.05737 0.05118 -0.07904 -0.04187 -0.0621
0.01041 0.08704 -0.04272 -0.0498 0.0691 -0.0896 0.01362 0.0707
0.03122 -0.0826 0.01412 -0.0367 0.02597 0.0828 -0.002644 -0.041
0.0857 0.0391 -0.007477 -0.00304 -0.0613 -0.02875 0.09247 -0.0543
-0.1046 -0.03305 0.03482 -0.00539 0.0763 0.0662 0.05484 0.00813
-0.002827 -0.0742 0.0367 -0.01695 0.08514 -0.0202 0.0748 -0.05823
-0.0675 -0.03065 0.08685 0.0845 -0.0915 0.03384 -0.0785 0.04614
0.096 0.0758 -0.04178 -0.10156 -0.0832 0.002415 -0.05096 0.01859
-0.01444 0.003292 -0.005146 -0.05847 -0.05078 0.01717 0.03784 -0.0216
-0.1052 -0.0639 0.04074 0.0398 -0.08984 0.0685 0.0825 0.02875
-0.0758 -0.036 0.0845 0.08057 -0.003775 0.08057 0.0006986 0.03525
0.07544 -0.07684 0.02661 -0.098 -0.0814 0.02765 -0.06726 0.0729
0.0708 -0.0964 0.07324 -0.0809 -0.04263 -0.02716 -0.0603 0.0613
0.03069 0.02808 -0.04825 -0.001823 0.0579 0.014496 0.0354 0.0844
-0.02074 0.0892 0.02719 0.06198 0.06335 -0.0872 -0.006405 0.04556
-0.04492 -0.0751 -0.002907 0.00957 -0.0915 0.0724 0.0101 0.010475
-0.0361 -0.0049 0.01697 -0.03088 0.08606 0.04248 0.06494 -0.05612
0.0763 0.0731 0.02621 0.08307 0.007072 -0.0577 0.0566 0.03564
-0.07513 0.0689 0.005417 0.05463 -0.02475 0.0671 -0.0229 0.01401
-0.0678 -0.09534 -0.011635 -0.08356 -0.08844 0.09644 -0.00257 0.05356
0.05084 -0.03235 0.04282 0.00933 0.02292 -0.0999 -0.03082 -0.10706
0.05276 -0.00945 0.0829 -0.04846 0.01624 -0.04004 -0.04413 0.09406
-0.01634 -0.09186 -0.01327 0.057 -0.0886 0.0835 -0.06 0.04675
-0.08856 0.0969 -0.0838 -0.0735 0.04816 -0.0406 0.004955 -0.0703
0.07104 0.01247 0.008125 0.03574 -0.0404 0.0326 -0.08575 0.01297
0.01732 -0.0739 -0.0703 -0.018 0.0809 -0.05374 -0.04477 0.0693
0.04803 -0.0314 0.04245 -0.07007 0.0753 -0.01804 -0.01312 -0.092
0.03992 -0.002735 -0.03412 0.000873 -0.03009 -0.05762 0.01672 -0.0678
-0.08514 0.06174 -0.0937 -0.03406 -0.0489 -0.07294 -0.04282 -0.08185
-0.07043 0.01822 0.02428 -0.0925 0.03745 -0.06354 -0.0531 0.01276

arith.constant25 f2 [1, 1, 1, 16]
00000000: 7c34 b534 ff31 3031 5a38 5bb6 3735 f215
00000010: ce30 19ab 3fb6 36b8 de34 9938 32ab 5d38
0.2803 0.2942 0.1874 0.1621 0.544 -0.3972 0.326 0.0014515
0.1501 -0.05545 -0.3904 -0.5264 0.3042 0.5747 -0.0562 0.5454

arith.constant27 f2 [16]
00000000: f225 1c24 b29e 3ca4 de21 fc20 66a1 45a2
00000010: 84a1 58a3 8523 0e9e 421b f0a3 191d 43a0
0.02322 0.01605 -0.00654 -0.01654 0.01146 0.009735 -0.010544 -0.012245
-0.01077 -0.01434 0.01469 -0.005913 0.003544 -0.0155 0.00498 -0.00832

arith.constant28 f2 [32]
00000000: 1d1b 8b9b 98a0 7f25 8ca0 d225 fb18 4ba0
00000010: 13a5 ed8e be24 141e dc9d 839f 1099 01a1
00000020: aca1 3823 06a7 719d 211c e69f 1396 758a
00000030: 8fa4 6727 a2a0 f518 c320 4fa1 7927 30a2
0.003473 -0.003683 -0.00897 0.02147 -0.00888 0.02274 0.002432 -0.008385
-0.01982 -0.0004227 0.01852 0.005936 -0.005722 -0.007336 -0.002472 -0.00977
-0.01108 0.0141 -0.02744 -0.005314 0.004032 -0.007713 -0.001483 -0.000197
-0.0178 0.02892 -0.00905 0.00242 0.0093 -0.01037 0.02919 -0.012085

arith.constant29 f2 [32]
00000000: 21a1 2a9f 3411 d8a3 bca0 3899 9a13 2626
00000010: d699 7e26 2f26 1e18 4f1d 8391 19a2 1a22
00000020: 1916 64a2 1da6 33a4 2215 d7a2 2720 8614
00000030: 0413 5a24 5d24 3626 8e20 249c 1825 1ca6
-0.01002 -0.006996 0.000635 -0.01532 -0.00925 -0.002548 0.000928 0.02402
-0.00285 0.02536 0.02415 0.00201 0.005184 -0.000673 -0.01191 0.01192
0.001489 -0.01248 -0.02388 -0.0164 0.001253 -0.01336 0.00811 0.001104
0.0008564 0.017 0.01704 0.02426 0.008896 -0.004044 0.0199 -0.02386

arith.constant30 f2 [64]
00000000: 1b1d 2124 5e20 e425 421c 0c14 36a1 0d14
00000010: c21c f822 5b1c 1ba4 ec21 1a1e dca7 e09d
00000020: 1321 fb19 1ea6 c31f 6b1d 4118 2120 3622
00000030: 7524 0921 ed9c 0a9f 54a2 711c db9c 8923
00000040: 1f1c 0d85 459e 8ca4 2e0b 3026 e59e e71d
00000050: 0aa3 661e 3b9d d31c 8e9f fea4 4c9e cf9b
00000060: 9619 0e1e 481c e09c 0e09 8c21 2d24 6c9f
00000070: e118 36a4 e4a1 b81d dca0 e9a2 3827 5521
0.004986 0.01613 0.00853 0.02301 0.004158 0.000988 -0.01018 0.000989
0.004646 0.01361 0.004253 -0.01604 0.011566 0.00596 -0.0307 -0.005737
0.00991 0.00292 -0.0239 0.00758 0.00529 0.002077 0.008064 0.01213
0.01741 0.009834 -0.00481 -0.006874 -0.01236 0.004337 -0.00474 0.01472
0.004025 -7.707e-05 -0.006123 -0.01776 0.0002191 0.02417 -0.006733 0.005764
-0.01375 0.00625 -0.005108 0.00471 -0.007378 -0.0195 -0.00615 -0.003813
0.002728 0.005913 0.00418 -0.00476 0.0001543 0.01083 0.01631 -0.007248
0.002382 -0.01645 -0.011505 0.005585 -0.00949 -0.0135 0.0282 0.010414

arith.constant31 f2 [64]
00000000: 53a6 8f20 4296 7625 df98 18a3 be1c 1a24
00000010: 7724 a01c e09e e31a fc9d 2620 6b9b 9a8f
00000020: 3719 f2a0 7989 c624 631e f421 c020 9c21
00000030: 1ea4 8aa3 6e1d e714 7f24 1199 6825 c31b
00000040: 52a2 8622 939f cb18 a625 7019 8820 fba0
00000050: 0d98 e023 6625 5e99 cb1c 15a4 db10 ee1f
00000060: e8a3 ed92 471c a2a0 dca4 2da1 60a0 fe1f
00000070: 8623 dd91 5a9a 5924 6216 0123 c924 4495
-0.0247 0.0089 -0.001528 0.02133 -0.002378 -0.013855 0.00463 0.01602
0.01744 0.004517 -0.006714 0.003363 -0.005844 0.0081 -0.003622 -0.000464
0.002546 -0.00966 -0.000167 0.01865 0.006237 0.01163 0.00928 0.010956
-0.01608 -0.014725 0.005302 0.001197 0.01756 -0.002474 0.02112 0.00379
-0.012344 0.01274 -0.007397 0.00234 0.02206 0.002655 0.00885 -0.00973
-0.001978 0.01538 0.02109 -0.00262 0.00468 -0.01595 0.0005927 0.007744
-0.01544 -0.0008454 0.004177 -0.00905 -0.01898 -0.01011 -0.008545 0.007805
0.014694 -0.0007157 -0.003101 0.01698 0.001558 0.01368 0.01869 -0.001286

arith.constant32 f2 [128]
00000000: 79a4 e692 f998 b423 2120 e69d daa0 5b1e
00000010: 9499 8413 e4a2 3022 819c 52a2 fc9e 4297
00000020: 3221 da97 c61c a7a0 dba0 8a1c 1da0 aea1
00000030: 6f1b 5521 15a4 d79c 1ca5 1825 7d1e ea1f
00000040: 6423 e498 169d 088e 9899 48a1 810b 3e8f
00000050: 829f fb9d fb0b 5617 689d c09f 029b f9a1
00000060: 9321 3228 7c27 1c9e 2da1 c69f 5819 9798
00000070: 5a20 43a0 5021 33a4 3097 4f93 e49e 2b9c
00000080: c50d 0e21 d318 4715 c69e 4523 239d a19d
00000090: c895 421c 0f25 439b 21a2 1aa0 09a1 3c93
000000a0: ba88 d01c 289e 6a1d ada2 8ba1 e314 cfa0
000000b0: 8c88 48a0 daa0 0520 d0a0 d69e 4124 1720
000000c0: e998 1b9e 371c 12a3 8c24 86a0 ff0b b28c
000000d0: 7f1e a49d bf9d a31e 8ca1 679a d826 c999
000000e0: 298f 0a14 5724 a89f 4e25 97a3 af24 6220
000000f0: 819d 6419 1c20 9496 1b8c 021f d222 77a0
-0.01747 -0.000842 -0.002428 0.015045 0.008064 -0.00576 -0.009476 0.006207
-0.002724 0.0009174 -0.01346 0.012085 -0.0044 -0.012344 -0.00682 -0.001772
0.01015 -0.001917 0.00466 -0.00909 -0.00948 0.004433 -0.00803 -0.01109
0.00363 0.010414 -0.01595 -0.004726 -0.01996 0.0199 0.006336 0.00773
0.014435 -0.002388 -0.004967 -0.000368 -0.002731 -0.010315 0.000229 -0.000442
-0.00733 -0.00584 0.0002435 0.001791 -0.00528 -0.00757 -0.003422 -0.011665
0.01089 0.03278 0.02924 -0.005966 -0.01011 -0.00759 0.00261 -0.002241
0.0085 -0.00832 0.010376 -0.0164 -0.001755 -0.000892 -0.00673 -0.00407
0.0003521 0.00987 0.002356 0.001288 -0.006615 0.0142 -0.005016 -0.005497
-0.001411 0.004158 0.01976 -0.003546 -0.01197 -0.00801 -0.009834 -0.000883
-0.0001442 0.0047 -0.006012 0.005287 -0.01304 -0.010826 0.001193 -0.00939
-0.0001388 -0.00836 -0.009476 0.00785 -0.0094 -0.006676 0.01662 0.00799
-0.002398 -0.005962 0.004116 -0.01381 0.01776 -0.008835 0.000244 -0.0002866
0.006344 -0.00551 -0.00561 0.00648 -0.01083 -0.003126 0.02673 -0.002825
-0.000437 0.000986 0.01695 -0.007477 0.02072 -0.014824 0.0183 0.00856
-0.005375 0.002632 0.008026 -0.001606 -0.0002506 0.006844 0.01332 -0.00872

arith.constant33 f2 [128]
00000000: 8b9c 4524 37a0 62a1 5d9d ed9c c09c d81d
00000010: fc9e 3e15 460e 931f 739e 1695 d11b 7414
00000020: 30a0 689b fd9a bb9e 349e c19c e115 4b17
00000030: f3a1 4da0 7794 e1a4 9193 9213 3722 48a3
00000040: 6a25 7ea0 e61c d99f 111d d1a1 cda0 3fa1
00000050: 149e 1793 4b23 071b a69e ff9c 7f9d 7307
00000060: f794 3096 76a3 b999 26a4 579a 829c 851a
00000070: e907 5323 e01c 3b23 ca9e cba1 df21 9a1b
00000080: c821 fc1b 7da3 408f 08a0 7b9c 3795 6b9f
00000090: c519 069c 6c15 4415 3323 c719 3da2 26a0
000000a0: 5425 569a a09b fc9d 04a1 f8a0 46a2 7699
000000b0: 0d21 638a e3a1 31a0 5da1 0e9e 89a4 c39d
000000c0: 9822 23a1 f4a2 5da0 869e 271e 8824 2b9e
000000d0: e09e 34a3 7c9c 349e e71e 6124 ae97 8ea1
000000e0: 269e e79d 97a0 fa17 3a9d 3281 671e cda0
000000f0: 5ba0 aa9e 1523 4621 3291 8e90 0697 1190
-0.004436 0.01668 -0.00823 -0.01051 -0.005238 -0.00481 -0.00464 0.005707
-0.00682 0.00128 0.000383 0.007397 -0.006298 -0.001242 0.003817 0.001087
-0.00818 -0.003616 -0.003412 -0.006573 -0.006058 -0.004642 0.001435 0.0017805
-0.01162 -0.0084 -0.00109 -0.01906 -0.0009236 0.000924 0.01214 -0.01422
0.02115 -0.00877 0.004784 -0.007664 0.004948 -0.01136 -0.00938 -0.01025
-0.005936 -0.0008655 0.014244 0.003431 -0.006493 -0.00488 -0.005367 0.00011367
-0.001212 -0.001511 -0.01457 -0.002794 -0.0162 -0.003096 -0.004402 0.003183
0.0001207 0.014305 0.00476 0.01412 -0.00663 -0.011314 0.01147 0.003712
0.01129 0.003899 -0.014626 -0.0004425 -0.00787 -0.004375 -0.001273 -0.007244
0.002817 -0.00393 0.001324 0.001286 0.01406 0.002821 -0.012184 -0.0081
0.02081 -0.003094 -0.003723 -0.005844 -0.009796 -0.009705 -0.01225 -0.002666
0.009865 -0.0001949 -0.0115 -0.00819 -0.010475 -0.005913 -0.01772 -0.005627
0.01288 -0.01003 -0.01358 -0.00852 -0.00637 0.00601 0.0177 -0.006023
-0.006714 -0.01407 -0.00438 -0.006058 0.00674 0.0171 -0.001875 -0.01085
-0.006004 -0.005764 -0.008965 0.001947 -0.005104 -1.824e-05 0.006252 -0.00938
-0.00851 -0.006508 0.01383 0.0103 -0.000634 -0.000556 -0.001715 -0.0004964

arith.constant34 f2 [64]
00000000: c1a2 971a d39e 49a0 4b9e bb18 3c96 3223
00000010: 04a2 0a9d 8c15 c69e 269e f89f c59b 759c
00000020: 55a0 339e 178e 9ea1 a511 3b24 969d fc19
00000030: 1027 b19c de9d 8e1b e79b a999 299e bb9a
00000040: 0f17 091c 98a0 259e 0ba0 669e 349c 751f
00000050: 2b1c 7b20 c79f 739e ac1d e527 4aa1 baa3
00000060: ee97 17a4 b923 949e 1820 8d15 2ba0 869c
00000070: 3d25 eb23 de9c c59f b09d 6c09 eca0 5a9e
-0.01319 0.003218 -0.006664 -0.00837 -0.006145 0.00231 -0.001522 0.01405
-0.01175 -0.00492 0.001354 -0.006615 -0.006004 -0.007782 -0.003794 -0.004353
-0.00846 -0.006054 -0.0003717 -0.01097 0.000689 0.01653 -0.005455 0.002922
0.02759 -0.00458 -0.00573 0.003689 -0.003859 -0.002764 -0.006016 -0.003286
0.001723 0.00394 -0.00897 -0.006 -0.0079 -0.00625 -0.004105 0.007282
0.00407 0.00875 -0.007595 -0.006298 0.00554 0.03084 -0.01033 -0.01509
-0.001936 -0.01598 0.01508 -0.006424 0.007996 0.001355 -0.00814 -0.004417
0.02046 0.015465 -0.004753 -0.007587 -0.005554 0.0001655 -0.00961 -0.006203

arith.constant35 f2 [32]
00000000: a717 cea5 851d b121 1628 fe9d 319c 4aa0
00000010: 4495 e6a1 cd9d ca1c af9f 2995 c423 0999
00000020: 0ca2 909b c19d 21a3 aba2 4e9d fb10 7319
00000030: e19e 73a0 df1d d4a0 8f18 c225 cb9b 3c9e
0.001868 -0.02267 0.00539 0.011116 0.03192 -0.00585 -0.004093 -0.00838
-0.001286 -0.01152 -0.005665 0.004677 -0.007504 -0.00126 0.01517 -0.002459
-0.01181 -0.003693 -0.00562 -0.01392 -0.01302 -0.00518 0.000608 0.00266
-0.006718 -0.00869 0.005733 -0.00943 0.002226 0.02249 -0.003805 -0.00609
